03_trained_model/deeplearning_model.pth (torch, 27213 bytes, 11 tensors)

weight f4 [64, 30]
0.196568 0.10617617 -0.0024240506 0.12681127 -0.022389643 0.0056788945 0.0021977073 -0.027661446
-0.07401759 -0.078174494 -0.007857759 -0.10117123 -0.23498233 0.011677646 -0.11662802 -0.044058073
0.1620839 0.12443461 0.015255102 0.007220627 0.12643966 0.17772993 0.13522479 0.3096725
0.0150343245 0.0065214676 0.26910594 0.16428392 -0.048602875 0.0747107 0.026121814 0.08685688
0.001280392 0.0155232595 -0.045770876 0.049693774 0.09063103 -0.13322802 0.12191983 -0.048301958
-0.1489224 0.0750775 -0.008355299 0.1300194 -0.21290614 -0.29486197 -0.17044902 -0.07535159
0.098862626 0.21742027 0.104351625 -0.03757686 0.18022047 -0.15385555 0.19859757 0.13940303
0.085161515 0.13456537 -0.054369383 -0.035125803 0.0012125466 0.21333168 0.016474944 -0.045289993
0.029259605 -0.13521607 0.07611041 -0.02312238 0.17343777 -0.006089166 0.013963972 0.022431605
0.21068637 0.1345301 -0.116045 0.14068468 -0.18974204 -0.24734096 -0.1095425 0.07772312
-0.048659977 -0.0025195736 -0.20665382 -0.07325843 -0.07431264 0.05170136 -0.013554415 -0.06155979
-0.08857883 -0.38510764 -0.121656045 -0.1319252 -0.10318297 0.042227443 0.068302915 0.046259977
-0.11549742 0.18688428 0.08181784 0.045806322 -0.095745854 -0.022101482 -0.10299571 0.020131044
0.19709283 -0.009391651 -0.0046887877 -0.22775361 -0.04285274 0.032813072 -0.023047602 0.08222399
0.054782003 0.051369984 0.031880658 -0.1415104 -0.18453404 -0.09073058 -0.005170123 0.16009547
-0.11919134 0.061726157 -0.13930309 -0.086787716 0.22072583 0.025950853 0.13193725 0.054680552
-0.16543272 0.1646817 -0.0883784 0.0017545138 -0.011426265 -0.06773976 -0.013967965 0.2771476
0.027132751 -0.33613908 0.06273756 0.02542491 -0.016492866 -0.019174226 0.10047924 0.16328333
-0.017350197 0.17557138 0.12530784 0.16216761 0.16099268 -0.29016125 0.026430486 0.03271282
0.026837947 0.023103641 -0.010621418 -0.16996023 0.10670773 0.036347296 -0.07751022 -0.018502379
0.07119971 0.09028887 0.03816305 0.016173564 0.03573519 0.103552245 -0.16240607 -0.22300746
-0.06629403 -0.001997633 -0.1453575 -0.32374507 -0.09887678 -0.13176222 0.28254247 -0.051794548
-0.1987622 -0.02462863 0.007737065 0.19905095 -0.05552238 0.1288589 0.058194052 0.024714567
-0.03327241 -0.24232517 -0.032888304 -0.17836672 0.03980274 0.02739815 -0.05959673 -0.0364811
-0.023022253 0.028178034 0.21421425 -0.23321989 -0.07171543 0.10809061 0.018807014 -0.010612563
-0.30969268 -0.21668778 0.2115359 0.24528986 0.16152148 -0.023066254 0.046457913 0.094966464
-0.06432102 0.19167084 0.13535139 -0.0674267 0.08329914 0.12873377 -0.009829977 0.13024043
-0.08099159 0.11465312 0.031646688 -2.149534e-05 -0.06994309 -0.2346452 -0.008301504 -0.006250905
-0.12289643 -0.16437127 -0.08307634 -0.27824348 -0.03986276 -0.015796788 0.06486835 0.2150155
0.21838564 -0.07241401 0.24788043 -0.006678683 0.047176734 0.2359071 0.06442621 -0.11151386
0.03226924 -0.0033442106 0.048902195 -0.12454762 0.18370493 -0.047508303 0.19833072 -0.15121324
-0.092486024 -0.021227138 -0.23897989 0.007035408 0.10011061 -0.05235133 0.08152076 0.10389868
00000000: 1f49 493e e472 d93d d2dc 1ebb d0da 013e
00000010: 7c6a b7bc 0516 ba3b 6907 103b 429a e2bc
00000020: 8996 97bd f319 a0bd d4bd 00bc dd32 cfbd
00000030: 359f 70be 9953 3f3c acda eebd 3d76 34bd
00000040: 52f9 253e 93d7 fe3d 89f0 793c 029b ec3b
00000050: 6679 013e d6fe 353e 5e78 0a3e 658d 9e3e
00000060: 8752 763c 09b2 d53b 41c8 893e 0b3a 283e
00000070: cf13 47bd ec01 993d 6afd d53c 05e2 b13d
00000080: d4d2 a73a 4555 7e3c 3e7a 3bbd b38b 4b3d
00000090: c39c b93d ed6c 08be 1bb1 f93d 46d8 45bd
000000a0: 1d7f 18be 3bc2 993d aae4 08bc ce23 053e
000000b0: 1104 5abe 26f8 96be 308a 2ebe ef51 9abd
000000c0: 7d78 ca3d 6ba3 5e3e 4eb6 d53d 32ea 19bd
000000d0: b78b 383e 4f8c 1dbe 295d 4b3e abbf 0e3e
000000e0: 2969 ae3d 81cb 093e 6eb2 5ebd 13e0 0fbd
000000f0: 50ee 9e3a 9f73 5a3e 76f6 863c 0082 39bd
00000100: d7b1 ef3c 1576 0abe c6df 9b3d 256b bdbc
00000110: ac99 313e a087 c7bb 25c9 643c 7cc2 b73c
00000120: 2bbe 573e 42c2 093e 00a9 edbd a50f 103e
00000130: bd4b 42be f346 7dbe d157 e0bd 4d2d 9f3d
00000140: af4f 47bd 6e1f 25bb 0f9d 53be 8408 96bd
00000150: 3a31 98bd cec4 533d 5613 5ebc 1e26 7cbd
00000160: d168 b5bd d42c c5be ce26 f9bd 6617 07be
00000170: 9851 d3bd aff6 2c3d 66e2 8b3d 1a7b 3d3d
00000180: e989 ecbd 985e 3f3e 1d90 a73d 699f 3b3d
00000190: 6716 c4bd 2b0e b5bc 6aef d2bd dce9 a43c
000001a0: b4d2 493e 70df 19bc 67a4 99bb 3e38 69be
000001b0: 5b86 2fbd 0067 063d 53ce bcbc 0d65 a83d
000001c0: 1863 603d 5569 523d 4b95 023d 1ae8 10be
000001d0: 7ef6 3cbe f4d0 b9bd 236a a9bb 11f0 233e
000001e0: 971a f4bd 91d4 7c3d 78a5 0ebe c2bd b1bd
000001f0: f405 623e e296 d43c 8f1a 073e b7f8 5f3d
00000200: 3267 29be 52a2 283e bcff b4bd b7f7 e53a
00000210: 3b35 3bbc 25bb 8abd e4d9 64bc 4ae6 8d3e
00000220: 8145 de3c 6c1a acbe 8d7c 803d e747 d03c
00000230: 0c1c 87bc 4413 9dbc 0fc8 cd3d bf33 273e
00000240: 0022 8ebc fcc8 333e b350 003e 440f 263e
00000250: 44db 243e 0490 94be bf84 d83c e1fd 053d
00000260: 41db db3c d943 bd3c 7505 2ebc 0e0a 2ebe
00000270: 9589 da3d e7e0 143d aebd 9ebd 4d92 97bc
00000280: 27d1 913d 5fe9 b83d dc50 1c3d 6c7e 843c
00000290: 105f 123d 3313 d43d c74d 26be 115c 64be
000002a0: 2ac5 87bd b8ea 02bb 99d8 14be eac1 a5be
000002b0: e97f cabd adec 06be 68a9 903e 8526 54bd
000002c0: 5188 4bbe fbc1 c9bc 3587 fd3b 03d4 4b3e
000002d0: 6f6b 63bd 96f3 033e e35c 6e3d 3476 ca3c
000002e0: a748 08bd 1724 78be e3b5 06bd c4a5 36be
000002f0: 3308 233d 1672 e03c b31b 74bd 356d 15bd
00000300: 2a99 bcbc 9fd5 e63c fb5a 5b3e 32d1 6ebe
00000310: 8adf 92bd 9c5e dd3d 2b11 9a3c 51e0 2dbc
00000320: 0a90 9ebe 67e3 5dbe de9c 583e 442d 7b3e
00000330: e365 253e 71f5 bcbc a74a 3e3d c77d c23d
00000340: bdba 83bd 5c45 443e 8e99 0a3e 0217 8abd
00000350: bd98 aa3d c9d2 033e e90d 21bc bf5d 053e
00000360: ebde a5bd 41cf ea3d f59f 013d e450 b4b7
00000370: 533e 8fbd d546 70be 0803 08bc 64d4 ccbb
00000380: 20b1 fbbd f150 28be ee23 aabd ee75 8ebe
00000390: 2247 23bd 4468 81bc b3d9 843d 062d 5c3e
000003a0: 7ca0 5f3e cc4d 94bd 5ed4 7d3e dbd8 dabb
000003b0: 643c 413d a191 713e e4f1 833d 6161 e4bd
000003c0: c02c 043d 8b2a 5bbb ab4d 483d d312 ffbd
000003d0: 251d 3c3e 1198 42bd 3517 4b3e a5d7 1abe
000003e0: 5069 bdbd 89e4 adbc 25b7 74be 4889 e63b
000003f0: cb06 cd3d 596e 56bd 5bf4 a63d d5c8 d43d

bias f4 [64]
-0.15281145 0.13813706 0.16913839 0.20163882 -0.36633772 0.053633295 0.1950858 -0.06917436
-0.08387489 0.06501544 -0.14760488 -0.020045046 0.027758183 0.047329623 0.18317917 0.12642443
0.049616765 0.0033871436 0.12390886 -0.026987713 0.062741205 0.14202172 -0.244963 -6.278748e-05
-0.087203614 0.21592453 0.084516995 -0.19011573 0.14568904 -0.08734757 0.2775995 -0.04520426
-0.18990159 -0.0019454713 0.1407759 0.16543059 -0.29190025 -0.19217746 -0.10104887 0.020215241
0.22325835 0.13127679 0.19189021 0.03843298 -0.06527221 -0.054570835 -0.06011375 0.20962936
-0.009031945 -0.21562657 0.20457621 0.0048597353 0.042419754 0.23391114 -0.26029298 0.08810181
-0.013827228 -0.027917903 0.044887282 -0.095393226 -0.0046911277 0.21664551 0.25959897 0.15620187
00000000: 9b7a 1cbe cd73 0d3e 9d32 2d3e 687a 4e3e
00000010: 9e90 bbbe 96ae 5b3d 92c4 473e 49ab 8dbd
00000020: 99c6 abbd d126 853d bc25 17be 8235 a4bc
00000030: 2165 e33c b5dc 413d 5293 3b3e 6875 013e
00000040: f33a 4b3d d7fa 5d3b eec3 fd3d 5615 ddbc
00000050: 767e 803d 246e 113e 95d7 7abe c6ac 83b8
00000060: cf97 b2bd 521b 5d3e 3f17 ad3d b3ad 42be
00000070: 822f 153e 48e3 b2bd 8621 8e3e 1a28 39bd
00000080: 9075 42be 2fff feba 8f27 103e a366 293e
00000090: f373 95be 2bca 44be b6f2 cebd 6f9a a53c
000000a0: d69d 643e 6c6d 063e de7e 443e e76b 1d3d
000000b0: 70ad 85bd ab85 5fbd d639 76bd 14a9 563e
000000c0: b9fa 13bc 36cd 5cbe 6d7c 513e 6a3e 9f3b
000000d0: 56c0 2d3d 6786 6f3e 1f45 85be b96e b43d
000000e0: 998b 62bc 16b4 e4bc badb 373d 865d c3bd
000000f0: 08b8 99bb 52d8 5d3e 28ea 843e 62f3 1f3e

weight f4 [64]
1.3332578 1.2447655 1.2927701 1.1759274 1.2577108 1.3253114 1.2053174 1.2846968
1.0580624 1.1623169 1.3990426 1.2768633 1.336869 1.2688626 1.2436775 1.021509
1.2174493 1.1916175 1.166495 1.4139595 0.924672 1.3970382 1.3986919 1.0758444
1.1568506 1.3617289 1.1082773 1.420978 1.1145214 1.3535099 1.3564597 1.1870766
1.4736043 1.3529893 1.2221655 1.0888491 1.3663499 1.3087068 1.3458223 1.2310157
1.2696543 1.2859104 1.2113279 1.3503342 1.3066007 1.205552 1.1506974 1.2101351
1.1962051 1.2462912 1.2532625 1.3192197 1.1838089 1.300557 1.3694729 1.205666
1.2880573 1.1588182 1.285143 1.16587 1.1175984 1.3599303 1.3870579 1.1942331
00000000: 31a8 aa3f 7a54 9f3f 7e79 a53f ca84 963f
00000010: abfc a03f cea3 a93f d747 9a3f f270 a43f
00000020: 976e 873f cdc6 943f d413 b33f 4270 a33f
00000030: 861e ab3f 176a a23f d330 9f3f cfc0 823f
00000040: 61d5 9b3f ec86 983f b54f 953f a0fc b43f
00000050: 4eb7 6c3f 26d2 b23f 5608 b33f 45b5 893f
00000060: ae13 943f 224d ae3f 08dc 8d3f 9be2 b53f
00000070: a3a8 8e3f d03f ad3f 79a0 ad3f 20f2 973f
00000080: 119f bc3f c12e ad3f eb6f 9c3f 685f 8b3f
00000090: 8ee4 ae3f b483 a73f e843 ac3f ec91 9d3f
000000a0: 0884 a23f b698 a43f cb0c 9b3f c0d7 ac3f
000000b0: b13e a73f 874f 9a3f 0d4a 933f b5e5 9a3f
000000c0: 401d 993f 7886 9f3f e86a a03f 31dc a83f
000000d0: 0d87 973f a778 a63f e34a af3f 4353 9a3f
000000e0: 10df a43f 2854 943f 917f a43f 3a3b 953f
000000f0: 770d 8f3f 3212 ae3f 1d8b b13f a1dc 983f

bias f4 [64]
-0.015142761 -0.25101626 -0.24798107 0.16355595 0.137658 -0.24427031 -0.20314662 0.08828944
-0.043520197 -0.11559232 0.26845747 0.09288073 0.057498366 0.1017133 -0.1700871 -0.022657935
-0.25267437 0.033483457 -0.28071794 0.16751511 -0.08208956 -0.025077194 0.16583277 -0.27768013
0.058774546 0.002046859 -0.27147892 -0.054053824 -0.16258767 0.058571365 -0.13982967 -0.1455412
-0.027093127 0.055541012 -0.18964253 -0.18851273 -0.03559518 -0.08142048 0.15920256 -0.1328935
-0.23284687 -0.020393994 -0.08068055 0.0026646277 0.015971143 0.0008395328 -0.2078067 -0.196332
-0.0047173873 0.08667322 -0.31279966 -0.2052505 0.054122034 -0.20526566 0.08995832 -0.15634854
-0.08587042 0.06056171 -0.015261888 -0.06566452 -0.12177675 -0.12478505 -0.21111225 -0.24131447
00000000: 5819 78bc 3485 80be c0ee 7dbe 367b 273e
00000010: 38f6 0c3e ff21 7abe ab05 50be 18d1 b43d
00000020: 3c42 32bd abbb ecbd 4273 893e 4138 be3d
00000030: 6883 6b3d 104f d03d 502b 2ebe 229d b9bc
00000040: 895e 81be f325 093d 43ba 8fbe 1589 2b3e
00000050: 921e a8bd b06e cdbc 11d0 293e 172c 8ebe
00000060: 94bd 703d 9824 063b 49ff 8abe 8b67 5dbd
00000070: 627d 26be 87e8 6f3d 822f 0fbe c108 15be
00000080: 68f2 ddbc f97e 633d a731 42be 7b09 41be
00000090: 40cc 11bd c8bf a6bd ff05 233e 3c15 08be
000000a0: 696f 6ebe 4e11 a7bc d83b a5bd 09a1 2e3b
000000b0: ead5 823c 1814 5c3a 48cb 54be 410b 49be
000000c0: 5094 9abb bb81 b13d 4727 a0be 302d 52be
000000d0: 11af 5d3d 2931 52be 113c b83d d519 20be
000000e0: d5dc afbd 8e0f 783d ff0c 7abc 1f7b 86bd
000000f0: 1766 f9bd 4e8f ffbd cf2d 58be 241b 77be

running_mean f4 [64]
0.18030283 0.39839616 0.15337388 0.10630207 -0.07237586 0.121682934 0.6517088 -0.049422834
0.22517696 -0.309314 -0.10039877 0.16802949 -0.27993932 -0.22248566 0.25264716 -0.13306731
-0.29258534 0.08396451 -0.16682191 0.022838257 0.55289763 -0.15933771 -0.35447538 -0.37373552
-0.23014128 0.052537173 -0.20829141 -0.22587414 -0.074602045 -0.25519958 0.1000046 0.31293318
-0.75089335 0.46507755 0.3099509 0.046342906 -0.22136548 -0.3667109 -0.012708816 0.0756491
0.69644946 0.16844311 0.28989014 -0.120900445 -0.44659826 -0.44820738 -0.21721426 0.27793252
0.32002872 -0.21165006 0.32113075 0.23125918 0.0056154015 -0.11447569 0.13346598 0.29345912
0.44704217 0.43884087 -0.2961465 0.05612373 -0.21034788 -0.3232248 0.3559196 -0.20505941
00000000: 4ea1 383e 95fa cb3e 0b0e 1d3e e6b4 d93d
00000010: cb39 94bd e734 f93d 63d6 263f 996f 4abd
00000020: ca94 663e 685e 9ebe df9d cdbd ec0f 2c3e
00000030: 3554 8fbe 48d3 63be f85a 813e cc42 08be
00000040: bfcd 95be 96f5 ab3d 5dd3 2abe 4c17 bb3c
00000050: b38a 0d3f 6d29 23be cc7d b5be 435a bfbe
00000060: 28aa 6bbe 3831 573d 584a 55be 8d4b 67be
00000070: f5c8 98bd 85a9 82be 36cf cc3d c738 a03e
00000080: 8c3a 40bf a51e ee3e e2b1 9e3e 0fd2 3d3d
00000090: a2ad 62be 88c1 bbbe a338 50bc eaed 9a3d
000000a0: 834a 323f 5a7c 2c3e 7b6c 943e a79a f7bd
000000b0: 87a8 e4be 707b e5be 6a6d 5ebe 2c4d 8e3e
000000c0: ceda a33e cbba 58be 406b a43e 35cf 6c3e
000000d0: 6701 b83b 3b72 eabd 4eab 083e 4640 963e
000000e0: b6e2 e43e c0af e03e 84a0 97be ffe1 653d
000000f0: 6f65 57be b97d a5be 183b b63e 18fb 51be

running_var f4 [64]
0.11583137 0.117064305 0.1566527 0.1429016 0.18275836 0.13561298 0.1833338 0.15963325
0.21180105 0.27097294 0.28730533 0.15987398 0.21941327 0.21681648 0.15707129 0.35191837
0.13112868 0.1627721 0.17496574 0.12374077 0.34874815 0.22018164 0.17048737 0.202664
0.23655796 0.09582089 0.34143898 0.16987763 0.19197577 0.19629563 0.15397523 0.18498321
0.18793795 0.2354816 0.14968333 0.14636314 0.23297833 0.15690646 0.26639092 0.11113596
0.17088944 0.16410819 0.1809072 0.18063238 0.24631765 0.3257651 0.21279429 0.190566
0.17256266 0.21126649 0.19262007 0.24804154 0.28173506 0.18562208 0.19139004 0.22244869
0.1690843 0.20959549 0.071963094 0.23091125 0.22943397 0.11756981 0.11015259 0.14415917
00000000: ff38 ed3d 69bf ef3d 9169 203e cc54 123e
00000010: 0225 3b3e 21de 0a3e dbbb 3b3e e676 233e
00000020: 60e2 583e f7bc 8a3e af19 933e 01b6 233e
00000030: dfad 603e 2405 5e3e 4cd7 203e a52e b43e
00000040: 9946 063e bbad 263e 382a 333e cd6b fd3d
00000050: 1e8f b23e 4c77 613e 3e94 2e3e 2787 4f3e
00000060: 403c 723e be3d c43d 17d1 ae3e 67f4 2d3e
00000070: 4c95 443e b901 493e afab 1d3e 3d6c 3d3e
00000080: ce72 403e 1722 713e 9646 193e 38e0 153e
00000090: df91 6e3e 16ac 203e 6464 883e 409b e33d
000000a0: a4fd 2e3e fa0b 283e bd3f 393e b2f7 383e
000000b0: b23a 7c3e afca a63e bfe6 593e bc23 433e
000000c0: 44b4 303e 3e56 583e 323e 453e 9afe 7d3e
000000d0: 943f 903e b713 3e3e c0fb 433e 97c9 633e
000000e0: 6f24 2d3e 33a0 563e 6361 933d 0074 6c3e
000000f0: bdf0 6a3e 71c8 f03d ae97 e13d 769e 133e

weight f4 [32, 64]
0.2428325 -0.15415123 -0.3142108 0.0018518814 0.19743812 -0.32137907 -0.22853118 0.26810426
-0.035641238 -0.2204848 0.32387668 0.20009503 -0.2054166 0.2387451 -0.15778323 -0.07343544
-0.25768808 -0.074510895 -0.051922604 0.27389824 0.05154442 -0.18086627 0.29855278 -0.15756007
-0.16044989 -0.25178742 -0.18484947 0.23931418 -0.13767855 0.2819685 -0.3153308 -0.2472182
0.2750477 0.23419017 -0.1431543 -0.15252042 0.2657035 0.23830754 0.27349854 -0.24323675
-0.20847358 -0.14262718 -0.2257374 -0.1956519 0.25918314 0.12842382 -0.20720655 -0.13685751
-0.117602885 0.16172755 -0.24823125 -0.15794921 0.23927848 -0.33393663 0.27330026 -0.21313813
-0.23446038 -0.10922859 -0.25725934 -0.19358897 -0.093313724 -0.30189702 -0.27301264 -0.14430206
-0.28120667 0.2184105 0.302758 0.21180455 -0.26067358 0.35593954 0.21407735 -0.3047037
0.08428073 0.22598122 -0.34041905 -0.2123457 0.23459414 -0.22257526 0.25864002 0.13102995
0.24468005 0.25915304 0.13127257 -0.27550837 -0.019147279 0.29928726 -0.27812436 0.22053012
0.13862942 0.30802748 0.17720835 -0.3678208 0.109018855 -0.20038703 0.25363812 0.1867575
-0.3148931 -0.31502536 0.18595318 -0.018457485 -0.33854076 -0.31521386 -0.33898142 0.12627743
0.24753055 0.2934355 0.17712913 0.2273094 -0.26361823 -0.065756254 0.13116495 0.2812181
0.17551407 -0.2893168 0.32249266 0.2595132 -0.15633193 0.24633317 -0.21646567 0.28529555
0.28434917 0.2218604 0.32685786 0.18556248 0.17427975 0.3354023 0.33358395 0.24419016
0.028320253 -0.18926843 -0.028467577 -0.048976574 -0.16256721 0.066364415 -0.034789123 0.023917397
-0.042284578 0.041067556 -0.15792248 -0.044591308 0.09019273 -0.17298536 0.002720755 0.028033061
-0.023193741 -0.030142572 -0.06964964 -0.24023962 -0.011507112 -0.11533211 -0.072228916 -0.051563885
-0.08479616 -0.12937903 0.10264101 0.084125474 -0.040094394 0.04739878 0.071109556 -0.07138401
-0.04938318 0.0948912 0.10997637 0.031914216 -0.020966986 -0.093609676 -0.29727712 0.0770322
0.029491426 -0.10939847 -0.087261684 -0.10166059 -0.18712038 -0.20903245 0.08393395 0.06370291
0.0076897256 -0.121556826 -0.08590636 0.08602476 -0.08831932 -0.016353738 -0.039590757 -0.022007434
-0.15734118 -0.039513078 -0.12156878 -0.17816089 -0.01456601 0.055898346 0.038816195 0.031017061
-0.1707539 0.15900396 0.24356999 0.15890114 -0.1777562 0.16051295 0.12704976 -0.2098021
0.06259526 0.15023458 -0.2522892 -0.02685347 0.116194166 -0.073665746 0.21882935 0.1203435
0.14321803 0.2049908 0.001648925 -0.15941931 0.00050782406 0.12003403 -0.15890041 0.12653565
0.06959109 0.17798066 0.09536973 -0.11312304 0.18010741 -0.16495936 0.14080402 0.11725064
-0.1536601 -0.15772603 0.07002894 -0.03702955 -0.24414395 -0.13574351 -0.19293189 0.10939662
0.15308006 0.12269518 0.14846478 0.12592368 -0.19072986 -0.1487195 0.16334327 0.1365095
0.12275537 -0.15287647 0.13304012 0.106315784 -0.075877264 0.14799084 -0.12507711 0.25243944
0.22424747 0.07884643 0.1830339 0.19442114 0.11694092 0.20465839 0.2243941 0.21452062
00000000: 15a9 783e d2d9 1dbe 3de0 a0be d4ba f23a
00000010: 382d 4a3e cc8b a4be 1404 6abe f644 893e
00000020: 8cfc 11bd c4c6 61be 2ad3 a53e b6e5 4c3e
00000030: bb58 52be 9879 743e ed91 21be 5265 96bd
00000040: b1ef 83be 2b99 98bd ccac 54bd 643c 8c3e
00000050: 3e20 533d 0235 39be e9db 983e 6d57 21be
00000060: fa4c 24be 48ea 80be 2e49 3dbe c70e 753e
00000070: 9bfb 0cbe 2d5e 903e 0a73 a1be c526 7dbe
00000080: 0dd3 8c3e 8ccf 6f3e 0a97 12be 502e 1cbe
00000090: 4a0a 883e e406 743e 0008 8c3e 0e13 79be
000000a0: 197a 55be dc0c 12be b427 67be f958 48be
000000b0: a7b3 843e 8981 033e f42d 54be 6024 0cbe
000000c0: c8d9 f0bd e89b 253e 5530 7ebe 70bd 21be
000000d0: 6b05 753e bef9 aabe 03ee 8b3e e240 5abe
000000e0: 6216 70be 3db3 dfbd 7fb7 83be 303c 46be
000000f0: 441b bfbd 3f92 9abe 50c8 8bbe ebc3 13be
00000100: 52fa 8fbe 01a7 5f3e 1903 9b3e 4be3 583e
00000110: 0277 85be b53d b63e 1837 5b3e 2002 9cbe
00000120: 609b ac3d 9f67 673e 684b aebe 2771 59be
00000130: 7239 703e c5ea 63be 776c 843e b72c 063e
00000140: 688d 7a3e b5af 843e 516c 063e 6f0f 8dbe
00000150: c1da 9cbc 2e3c 993e 5166 8ebe a6d2 613e
00000160: dff4 0d3e c7b5 9d3e 1b76 353e 0253 bcbe
00000170: 4745 df3d 4232 4dbe dbdc 813e 5c3d 3f3e
00000180: ab39 a1be 014b a1be 836a 3e3e 2734 97bc
00000190: 3755 adbe b663 a1be f98e adbe df4e 013e
000001a0: a678 7d3e 2e3d 963e 5761 353e ccc3 683e
000001b0: f8f8 86be 37ab 86bd 1b50 063e d2fb 8f3e
000001c0: f6b9 333e 5521 94be c21d a53e eade 843e
000001d0: 7a15 20be c33e 7c3e 2da9 5dbe 4212 923e
000001e0: 3796 913e 5f2f 633e ea59 a73e 1704 3e3e
000001f0: 6476 323e dab9 ab3e 84cb aa3e fc0c 7a3e
00000200: e0ff e73c 95cf 41be d634 e9bc a99b 48bd
00000210: 0578 26be 11ea 873d 0a7f 0ebd 6bee c33c
00000220: 9832 2dbd 7436 283d 6eb6 21be 60a5 36bd
00000230: f7b6 b83d 1323 31be b24e 323b 97a5 e53c
00000240: cd00 bebc 8eed f6bc 78a4 8ebd 6001 76be
00000250: 5388 3cbc 3e33 ecbd c1ec 93bd a734 53bd
00000260: 9ca9 adbd f07b 04be 7335 d23d fa49 ac3d
00000270: 053a 24bd 3925 423d e3a1 913d c831 92bd
00000280: 0446 4abd 5156 c23d 4b3b e13d 7bb8 023d
00000290: f5c2 abbc 6eb6 bfbd b534 98be 0fc3 9d3d
000002a0: 0198 f13c 4e0c e0bd 41b6 b2bd 6d33 d0bd
000002b0: 7c9c 3fbe 9a0c 56be 90e5 ab3d ac76 823d
000002c0: 18fa fb3b c9f2 f8bd acef afbd c02d b03d
000002d0: c2e0 b4bd 46f8 85bc eb29 22bd ef48 b4bc
000002e0: 0c1e 21be 77d8 21bd 0df9 f8bd cf6f 36be
000002f0: 46a6 6ebc aaf5 643d bbfd 1e3d 7e17 fe3c
00000300: 1cda 2ebe efd1 223e 696a 793e fbb6 223e
00000310: b905 36be 825d 243e 5519 023e 5dd6 56be
00000320: f231 803d 18d7 193e 0d2c 81be cffb dbbc
00000330: 35f7 ed3d 11de 96bd cd14 603e a776 f63d
00000340: bfa7 123e 1ce9 513e be20 d83a d13e 23be
00000350: 7f1f 053a 67d4 f53d cab6 22be 9092 013e
00000360: c685 8e3d 9040 363e 3451 c33d 0dad e7bd
00000370: 146e 383e 1beb 28be ee2e 103e 1b21 f03d
00000380: 1359 1dbe ef82 21be 556b 8f3d 4cac 17bd
00000390: df00 7abe 5900 0bbe f08f 45be 560b e03d
000003a0: 05c1 1c3e 9c47 fb3d 2707 183e 23f2 003e
000003b0: b04e 43be ed49 18be 7543 273e 25c9 0b3e
000003c0: 2b67 fb3d a68b 1cbe ab3b 083e 17bc d93d
000003d0: 8a65 9bbd e98a 173e 3714 00be be3f 813e
000003e0: 21a1 653e 3d7a a13d 3d6d 3b3e 5616 473e
000003f0: b97e ef3d f891 513e 91c7 653e 4bab 5b3e

bias f4 [32]
-0.006140477 -0.016409108 -0.06872343 -0.048898686 -0.067340195 0.007667605 0.24693717 0.0006262038
0.06934428 0.11000903 0.08726838 0.0023724777 0.026593916 0.062235218 0.21993738 0.07531593
-0.0018687284 0.12199954 0.15379831 -0.12517032 -0.063133284 0.085984245 -0.022270463 0.05716426
-0.04608009 0.06591061 -0.09388559 -0.09621869 -0.10330552 -0.018312525 -0.08549799 -0.03276753
00000000: 0e36 c9bb 656c 86bc dfbe 8cbd fd49 48bd
00000010: a8e9 89bd 8840 fb3b 19dd 7c3e d327 243a
00000020: 6004 8e3d 6a4c e13d c4b9 b23d 927b 1b3b
00000030: 7cdb d93c 5bea 7e3d 4437 613e 3d3f 9a3d
00000040: 1ff0 f4ba e5da f93d 4e7d 1d3e a62c 00be
00000050: 064c 81bd 8218 b03d 8c70 b6bc 1225 6a3d
00000060: 7abe 3cbd 24fc 863d 1747 c0bd 4e0e c5bd
00000070: d891 d3bd 2604 96bc 9219 afbd 3f37 06bd

weight f4 [16, 32]
-0.3905499 0.7494157 -0.036357306 0.18284008 0.17722678 0.22215462 0.24827883 -0.4452975
0.2469202 -0.23371124 -0.55028677 0.67760605 0.17639388 0.098010264 0.13922587 0.12190333
0.26446828 -0.04386296 -0.33079678 0.17201976 0.22116297 -0.68425035 -9.80549e-05 -0.20750491
0.6383029 0.117309704 0.26221803 0.36846232 -0.0065554753 0.78826064 -0.41550475 0.58415645
0.41796428 -0.79254776 -0.022541739 -0.034447744 -0.20289557 -0.030317776 0.13802673 0.4663864
-0.07635098 0.19107465 0.68938833 -0.7451383 -0.094074585 0.09673727 0.23067503 0.02656843
-0.2251676 0.08541834 0.57710993 -0.022037942 -0.19408473 0.62485933 0.091912866 0.38999844
-0.34300825 -0.02454593 0.045562975 -0.1260385 0.052320577 -0.8537471 0.23120607 -0.63179576
-0.5958575 0.60307544 -0.058766104 0.13012509 -0.027022164 0.18977144 -0.06373475 -0.41629252
0.246768 -0.18294837 -0.39272344 0.42828175 0.25064713 0.16629067 0.13788123 0.08020838
0.28696144 0.14920877 -0.36123163 0.18055825 0.16245455 -0.5005336 0.1516 -0.25501359
0.38143933 0.22684738 0.020514704 0.18947482 0.24193648 0.48711658 -0.2793483 0.5289989
-0.76421756 0.9031518 0.103991665 0.17677695 0.084880315 0.3383393 0.19999853 -0.51377803
0.41903412 -0.25697374 -0.5856817 0.8567426 0.1909059 0.08723309 0.12267769 0.4415374
0.618692 -0.0022754862 -0.5363723 0.36452907 0.39377305 -0.63878614 0.06567191 -0.45293415
0.7562069 0.23686326 0.3021608 0.30310833 0.17786916 0.8553395 -0.5455314 0.8553978
-0.59557617 0.7287275 0.28003034 0.22392748 0.24699149 0.05065744 0.18281822 -0.4256581
0.2607426 -0.22115982 -0.58638734 0.78839314 0.28292882 0.16636036 0.14186782 0.16207956
0.39483184 0.0090722265 -0.3887584 0.34400913 0.088316984 -0.5967985 0.1400059 -0.21551983
0.50669754 0.10424255 0.30087095 0.16739126 0.079763785 0.6359564 -0.6021931 0.622252
-0.7639876 0.57877094 0.12905814 0.3456175 0.12456886 0.4043381 0.2486688 -0.5997999
0.40795055 -0.18338022 -0.52853936 0.8672676 0.24432048 0.05875196 0.12691231 0.4549616
0.6824575 0.21355782 -0.425179 0.41961744 0.26746765 -0.6465647 0.10015607 -0.6703629
0.8300417 0.13160291 0.31665406 0.40225235 0.27423954 0.85232794 -0.6557737 0.75191444
0.62661266 -0.84624404 -0.13160951 -0.5603696 -0.32087424 -0.71061856 0.3578502 0.39168665
-0.47345653 0.1591694 0.55130297 -0.8193503 -0.4874523 0.13749474 0.16551435 -0.48831993
-0.6971625 0.39002708 0.7718253 -0.74432564 -0.33387303 0.508139 0.3327673 0.72040063
-0.55728954 0.27621886 -0.5476441 -0.7603434 -0.44485804 -0.5056639 0.63638943 -0.6468114
-0.4020473 0.5202741 0.03826289 0.13473406 0.13419141 0.29700938 0.11505251 -0.42933106
0.309336 -0.032421336 -0.61230063 0.7395636 0.3006251 0.15856326 0.13997437 0.29824796
0.5653119 0.20838654 -0.3625233 0.09270146 0.32769477 -0.6256755 0.09291966 -0.3195576
0.69984555 0.045574717 0.23752339 0.38906428 0.03334621 0.59738535 -0.342788 0.6329556
00000000: 28f6 c7be b5d9 3f3f 66eb 14bd 6e3a 3b3e
00000010: f07a 353e 807c 633e ce3c 7e3e 09fe e3be
00000020: a6d8 7c3e 0052 6fbe 98df 0cbf 9777 2d3f
00000030: 99a0 343e 9bb9 c83d 3a91 0e3e 74a8 f93d
00000040: 6368 873e a6a9 33bd 325e a9be f325 303e
00000050: 8c78 623e 082b 2fbf d3a2 cdb8 2b7c 54be
00000060: d267 233f 1240 f03d 7141 863e 18a7 bc3e
00000070: 50cf d6bb 73cb 493f 0abd d4be 478b 153f
00000080: 6aff d53e 69e4 4abf 74a9 b8bc 1419 0dbd
00000090: dbc3 4fbe fc5c f8bc e156 0d3e 33ca ee3e
000000a0: e75d 9cbd 13a9 433e c17b 303f 62c1 3ebf
000000b0: 2daa c0bd 311e c63d 1336 6c3e 09a6 d93c
000000c0: 5692 66be d0ef ae3d 7abd 133f ea88 b4bc
000000d0: 26be 46be c8f6 1f3f d03c bc3d e0ad c73e
000000e0: c79e afbe 8c14 c9bc 3ea0 3a3d 3d10 01be
000000f0: 1a4e 563d 2c8f 5abf 49c1 6c3e 5ebd 21bf
00000100: 1e8a 18bf 2763 1a3f bab4 70bd 833f 053e
00000110: 965d ddbc 7253 423e 5d87 82bd 4b24 d5be
00000120: c0b0 7c3e d156 3bbe 0c13 c9be bf47 db3e
00000130: d254 803e 1a48 2a3e bd30 0d3e 4b44 a43d
00000140: 9cec 923e 2fca 183e 5af3 b8be 43e4 383e
00000150: 7c5a 263e f822 00bf 083d 1b3e 2491 82be
00000160: 044c c33e ae4a 683e 740e a83c b005 423e
00000170: 32be 773e 5867 f93e be06 8fbe 796c 073f
00000180: c3a3 43bf f534 673f 95f9 d43d 0405 353e
00000190: bbd5 ad3d cf3a ad3e 6acc 4c3e f586 03bf
000001a0: a48b d63e 1092 83be 3cef 15bf 7c53 5b3f
000001b0: d67c 433e 43a7 b23d 713e fb3d 3111 e23e
000001c0: 9962 1e3f 5320 15bb b24f 09bf 8ea3 ba3e
000001d0: 9f9c c93e 7d87 23bf ff7e 863d fce6 e7be
000001e0: c796 413f 488c 723e d2b4 9a3e 0431 9b3e
000001f0: 5523 363e 88f7 5a3f f2a7 0bbf 5afb 5a3f
00000200: ae77 18bf e38d 3a3f 2360 8f3e 3f4d 653e
00000210: 56eb 7c3e 2d7e 4f3d b334 3b3e dcef d9be
00000220: 0e80 853e b877 62be 7b1d 16bf 22d4 493f
00000230: 0cdc 903e 5f5a 2a3e cc45 113e 2ff8 253e
00000240: 6627 ca3e ada3 143c 570b c7be f721 b03e
00000250: 89df b43d c9c7 18bf b55d 0f3e 3bb1 5cbe
00000260: eeb6 013f 1e7d d53d c20b 9a3e 9d68 2b3e
00000270: 325b a33d 0ace 223f 5429 1abf e84b 1f3f
00000280: b194 43bf 552a 143f d127 043e c7f4 b03e
00000290: f51d ff3d 6705 cf3e 09a3 7e3e 7c8c 19bf
000002a0: e5de d03e 06c8 3bbe 5b4e 07bf 4005 5e3f
000002b0: 262f 7a3e e5a5 703d 4df5 013e baf0 e83e
000002c0: 89b5 2e3f e7ae 5a3e 10b1 d9be 19d8 d63e
000002d0: 85f1 883e 4485 25bf a01e cd3d e79c 2bbf
000002e0: 9d7d 543f eac2 063e 7b20 a23e 05f4 cd3e
000002f0: 2069 8c3e 2a32 5a3f c9e0 27bf 777d 403f
00000300: b069 203f 73a3 58bf a5c4 06be 6274 0fbf
00000310: a149 a4be 19eb 35bf 2438 b73e 278b c83e
00000320: e568 f2be 4efd 223e 3122 0d3f f1c0 51bf
00000330: 5993 f9be 6ccb 0c3e 987c 293e 1205 fabe
00000340: 3e79 32bf a1b1 c73e 5896 453f 208c 3ebf
00000350: 68f1 aabe 6615 023f 7a60 aa3e 2d6c 383f
00000360: 87aa 0ebf 8f6c 8d3e 6732 0cbf dda5 42bf
00000370: 6fc4 e3be 3073 01bf 6bea 223f 6f95 25bf
00000380: 25d9 cdbe af30 053f 8cb9 1c3d baf7 093e
00000390: 7969 093e 9d11 983e a6a0 eb3d 48d1 dbbe
000003a0: 4a61 9e3e 3ccc 04bd bcbf 1cbf 0a54 3d3f
000003b0: 88eb 993e 685e 223e 7155 0f3e f5b3 983e
000003c0: 48b8 103f 4863 553e a79c b9be 43da bd3d
000003d0: 9cc7 a73e 452c 20bf aa4c be3d 0e9d a3be
000003e0: 1429 333f 8eac 3a3d 5539 733e 6f33 c73e
000003f0: 0996 083d 3fee 183f e981 afbe 6109 223f

bias f4 [16]
-0.031087799 -0.060780767 0.12975892 0.028869221 -0.17624421 -0.050374787 0.3807365 -0.20250773
0.13252755 -0.16283885 0.08112804 0.3076134 0.3099159 0.2950884 0.29442707 0.2726204
00000000: d7ab febc 41f5 78bd 86df 043e 257f ec3c
00000010: 5d79 34be cb55 4ebd e5ef c23e 305e 4fbe
00000020: 4db5 073e 3abf 26be 7526 a63d 817f 9d3e
00000030: 4cad 9e3e d415 973e 25bf 963e e794 8b3e

weight f4 [1, 16]
-0.5952965 0.23021683 -0.37470463 -0.47682056 -0.6073188 -0.8045544 0.71530217 -0.35020313
-0.42230293 -0.9423978 -0.33649665 0.5411487 0.85808975 0.8560141 0.45473933 0.3505772
00000000: 5a65 18bf f6bd 6b3e 49d9 bfbe d321 f4be
00000010: 3f79 1bbf 47f7 4dbf 0b1e 373f d34d b3be
00000020: 1738 d8be fb40 71bf 4a49 acbe b988 0a3f
00000030: c5ab 5b3f bd23 5b3f 98d3 e83e db7e b33e
